#loc = loc("/root/code/triton/python/triton_kernels/triton_kernels/specialize.py":15:0)
module {
  tt.func public @_matmul_ogs_NNT_fp8e4nvxfp8e4nvxmxfp4_256x256x128x1_swiglu(%arg0: !tt.ptr<f8E4M3FN> {tt.divisibility = 16 : i32, tt.pointer_range = 32 : i32} loc("/root/code/triton/python/triton_kernels/triton_kernels/specialize.py":15:0), %arg1: !tt.ptr<f8E4M3FN> {tt.divisibility = 16 : i32, tt.pointer_range = 32 : i32} loc("/root/code/triton/python/triton_kernels/triton_kernels/specialize.py":15:0), %arg2: i32 {tt.divisibility = 16 : i32} loc("/root/code/triton/python/triton_kernels/triton_kernels/specialize.py":15:0), %arg3: i32 {tt.divisibility = 16 : i32} loc("/root/code/triton/python/triton_kernels/triton_kernels/specialize.py":15:0), %arg4: i32 {tt.divisibility = 16 : i32} loc("/root/code/triton/python/triton_kernels/triton_kernels/specialize.py":15:0), %arg5: !tt.ptr<f8E4M3FN> {tt.divisibility = 16 : i32, tt.pointer_range = 32 : i32} loc("/root/code/triton/python/triton_kernels/triton_kernels/specialize.py":15:0), %arg6: i32 {tt.divisibility = 16 : i32} loc("/root/code/triton/python/triton_kernels/triton_kernels/specialize.py":15:0), %arg7: i32 {tt.divisibility = 16 : i32} loc("/root/code/triton/python/triton_kernels/triton_kernels/specialize.py":15:0), %arg8: !tt.ptr<i8> {tt.divisibility = 16 : i32} loc("/root/code/triton/python/triton_kernels/triton_kernels/specialize.py":15:0), %arg9: i32 {tt.divisibility = 16 : i32} loc("/root/code/triton/python/triton_kernels/triton_kernels/specialize.py":15:0), %arg10: i32 {tt.divisibility = 16 : i32} loc("/root/code/triton/python/triton_kernels/triton_kernels/specialize.py":15:0), %arg11: !tt.ptr<i8> {tt.divisibility = 16 : i32, tt.pointer_range = 32 : i32} loc("/root/code/triton/python/triton_kernels/triton_kernels/specialize.py":15:0), %arg12: i32 {tt.divisibility = 16 : i32} loc("/root/code/triton/python/triton_kernels/triton_kernels/specialize.py":15:0), %arg13: i32 {tt.divisibility = 16 : i32} loc("/root/code/triton/python/triton_kernels/triton_kernels/specialize.py":15:0), %arg14: !tt.ptr<f32> {tt.divisibility = 16 : i32, tt.pointer_range = 32 : i32} loc("/root/code/triton/python/triton_kernels/triton_kernels/specialize.py":15:0), %arg15: i32 {tt.divisibility = 16 : i32} loc("/root/code/triton/python/triton_kernels/triton_kernels/specialize.py":15:0), %arg16: i32 {tt.divisibility = 16 : i32} loc("/root/code/triton/python/triton_kernels/triton_kernels/specialize.py":15:0), %arg17: i32 {tt.divisibility = 16 : i32} loc("/root/code/triton/python/triton_kernels/triton_kernels/specialize.py":15:0), %arg18: i32 {tt.divisibility = 16 : i32} loc("/root/code/triton/python/triton_kernels/triton_kernels/specialize.py":15:0), %arg19: !tt.ptr<i32> {tt.divisibility = 16 : i32, tt.pointer_range = 32 : i32} loc("/root/code/triton/python/triton_kernels/triton_kernels/specialize.py":15:0), %arg20: !tt.ptr<i32> {tt.divisibility = 16 : i32, tt.pointer_range = 32 : i32} loc("/root/code/triton/python/triton_kernels/triton_kernels/specialize.py":15:0), %arg21: !tt.ptr<i32> {tt.divisibility = 16 : i32, tt.pointer_range = 32 : i32} loc("/root/code/triton/python/triton_kernels/triton_kernels/specialize.py":15:0), %arg22: !tt.ptr<i32> {tt.divisibility = 16 : i32, tt.pointer_range = 32 : i32} loc("/root/code/triton/python/triton_kernels/triton_kernels/specialize.py":15:0), %arg23: !tt.ptr<i32> {tt.divisibility = 16 : i32, tt.pointer_range = 32 : i32} loc("/root/code/triton/python/triton_kernels/triton_kernels/specialize.py":15:0), %arg24: i32 loc("/root/code/triton/python/triton_kernels/triton_kernels/specialize.py":15:0), %arg25: i32 {tt.divisibility = 16 : i32} loc("/root/code/triton/python/triton_kernels/triton_kernels/specialize.py":15:0), %arg26: f32 loc("/root/code/triton/python/triton_kernels/triton_kernels/specialize.py":15:0), %arg27: f32 loc("/root/code/triton/python/triton_kernels/triton_kernels/specialize.py":15:0)) attributes {noinline = false} {
    %cst = arith.constant 0.000000e+00 : f32 loc(#loc1)
    %cst_0 = arith.constant dense<1.000000e+00> : tensor<256x128xf32> loc(#loc1)
    %cst_1 = arith.constant dense<0.000000e+00> : tensor<256x256xf32> loc(#loc1)
    %c8_i32 = arith.constant 8 : i32 loc(#loc1)
    %c4_i32 = arith.constant 4 : i32 loc(#loc1)
    %cst_2 = arith.constant dense<0.000000e+00> : tensor<256xf32> loc(#loc1)
    %c0_i64 = arith.constant 0 : i64 loc(#loc1)
    %cst_3 = arith.constant dense<64> : tensor<64x256xi32> loc(#loc1)
    %cst_4 = arith.constant dense<128> : tensor<256x128xi32> loc(#loc1)
    %cst_5 = arith.constant dense<4> : tensor<8x128xi32> loc(#loc1)
    %cst_6 = arith.constant dense<127> : tensor<256x4xi8> loc(#loc1)
    %c8_i64 = arith.constant 8 : i64 loc(#loc1)
    %c128_i64 = arith.constant 128 : i64 loc(#loc1)
    %cst_7 = arith.constant dense<4> : tensor<256xi32> loc(#loc1)
    %c256_i64 = arith.constant 256 : i64 loc(#loc1)
    %c16_i32 = arith.constant 16 : i32 loc(#loc1)
    %c65535_i32 = arith.constant 65535 : i32 loc(#loc1)
    %c-1_i32 = arith.constant -1 : i32 loc(#loc1)
    %c2_i32 = arith.constant 2 : i32 loc(#loc1)
    %true = arith.constant true loc(#loc1)
    %c0_i32 = arith.constant 0 : i32 loc(#loc1)
    %0 = arith.cmpi sge, %arg2, %c0_i32 : i32 loc(#loc2)
    llvm.intr.assume %0 : i1 loc(#loc3)
    %1 = arith.cmpi sge, %arg3, %c0_i32 : i32 loc(#loc4)
    llvm.intr.assume %1 : i1 loc(#loc5)
    %2 = arith.cmpi sge, %arg4, %c0_i32 : i32 loc(#loc6)
    llvm.intr.assume %2 : i1 loc(#loc7)
    llvm.intr.assume %true : i1 loc(#loc8)
    %3 = arith.cmpi sge, %arg6, %c0_i32 : i32 loc(#loc9)
    llvm.intr.assume %3 : i1 loc(#loc10)
    %4 = arith.cmpi sge, %arg7, %c0_i32 : i32 loc(#loc11)
    llvm.intr.assume %4 : i1 loc(#loc12)
    llvm.intr.assume %true : i1 loc(#loc13)
    %5 = arith.cmpi sge, %arg9, %c0_i32 : i32 loc(#loc14)
    llvm.intr.assume %5 : i1 loc(#loc15)
    llvm.intr.assume %true : i1 loc(#loc16)
    %6 = arith.cmpi sge, %arg10, %c0_i32 : i32 loc(#loc17)
    llvm.intr.assume %6 : i1 loc(#loc18)
    %7 = arith.cmpi sge, %arg12, %c0_i32 : i32 loc(#loc19)
    llvm.intr.assume %7 : i1 loc(#loc20)
    llvm.intr.assume %true : i1 loc(#loc21)
    %8 = arith.cmpi sge, %arg13, %c0_i32 : i32 loc(#loc22)
    llvm.intr.assume %8 : i1 loc(#loc23)
    %9 = arith.cmpi sge, %arg15, %c0_i32 : i32 loc(#loc24)
    llvm.intr.assume %9 : i1 loc(#loc25)
    llvm.intr.assume %true : i1 loc(#loc26)
    %10 = arith.cmpi sge, %arg24, %c0_i32 : i32 loc(#loc27)
    llvm.intr.assume %10 : i1 loc(#loc28)
    %11 = arith.cmpi sge, %arg25, %c0_i32 : i32 loc(#loc29)
    llvm.intr.assume %11 : i1 loc(#loc30)
    %12 = arith.divsi %arg17, %c2_i32 : i32 loc(#loc31)
    %13 = tt.get_program_id x : i32 loc(#loc32)
    %14 = tt.load %arg22 : !tt.ptr<i32> loc(#loc33)
    %15 = arith.subi %arg24, %14 : i32 loc(#loc34)
    %16 = arith.subi %arg24, %15 : i32 loc(#loc35)
    %17 = arith.cmpi sge, %16, %c0_i32 : i32 loc(#loc36)
    llvm.intr.assume %17 : i1 loc(#loc37)
    %18 = arith.muli %16, %arg25 : i32 loc(#loc38)
    %19 = arith.cmpi sgt, %15, %c0_i32 : i32 loc(#loc39)
    %20 = arith.cmpi sge, %13, %18 : i32 loc(#loc40)
    %21 = arith.andi %19, %20 : i1 loc(#loc41)
    cf.cond_br %21, ^bb1, ^bb2 loc(#loc41)
  ^bb1:  // pred: ^bb0
    %22 = arith.subi %13, %18 : i32 loc(#loc42)
    %23 = arith.muli %15, %arg25 : i32 loc(#loc43)
    %24 = arith.cmpi slt, %22, %23 : i32 loc(#loc44)
    scf.if %24 {
      %174 = arith.muli %arg25, %c4_i32 : i32 loc(#loc171)
      %175 = arith.divsi %22, %174 : i32 loc(#loc172)
      %176 = arith.muli %175, %c4_i32 : i32 loc(#loc173)
      %177 = arith.subi %15, %176 : i32 loc(#loc174)
      %178 = arith.minsi %177, %c4_i32 : i32 loc(#loc175)
      %179 = arith.cmpi sge, %178, %c0_i32 : i32 loc(#loc176)
      llvm.intr.assume %179 : i1 loc(#loc177)
    } loc(#loc45)
    tt.return loc(#loc54)
  ^bb2:  // pred: ^bb0
    %25 = arith.divsi %18, %c8_i32 : i32 loc(#loc178)
    %26 = arith.remsi %18, %c8_i32 : i32 loc(#loc179)
    %27 = arith.remsi %13, %c8_i32 : i32 loc(#loc180)
    %28 = arith.divsi %13, %c8_i32 : i32 loc(#loc181)
    %29 = arith.muli %27, %25 : i32 loc(#loc182)
    %30 = arith.minsi %27, %26 : i32 loc(#loc183)
    %31 = arith.addi %29, %30 : i32 loc(#loc184)
    %32 = arith.addi %31, %28 : i32 loc(#loc185)
    %33 = arith.remsi %32, %18 : i32 loc(#loc64)
    %34 = arith.muli %arg25, %c4_i32 : i32 loc(#loc186)
    %35 = arith.divsi %33, %34 : i32 loc(#loc187)
    %36 = arith.muli %35, %c4_i32 : i32 loc(#loc188)
    %37 = arith.subi %16, %36 : i32 loc(#loc189)
    %38 = arith.minsi %37, %c4_i32 : i32 loc(#loc190)
    %39 = arith.cmpi sge, %38, %c0_i32 : i32 loc(#loc191)
    llvm.intr.assume %39 : i1 loc(#loc192)
    %40 = arith.remsi %33, %38 : i32 loc(#loc193)
    %41 = arith.addi %36, %40 : i32 loc(#loc194)
    %42 = arith.remsi %33, %34 : i32 loc(#loc195)
    %43 = arith.divsi %42, %38 : i32 loc(#loc196)
    %44 = tt.addptr %arg23, %41 : !tt.ptr<i32>, i32 loc(#loc70)
    %45 = tt.load %44 : !tt.ptr<i32> loc(#loc71)
    %46 = arith.cmpi eq, %45, %c-1_i32 : i32 loc(#loc72)
    cf.cond_br %46, ^bb3, ^bb4 loc(#loc72)
  ^bb3:  // pred: ^bb2
    tt.return loc(#loc73)
  ^bb4:  // pred: ^bb2
    %47 = arith.andi %45, %c65535_i32 : i32 loc(#loc74)
    %48 = arith.shrsi %45, %c16_i32 : i32 loc(#loc75)
    %49 = tt.addptr %arg20, %47 : !tt.ptr<i32>, i32 loc(#loc76)
    %50 = tt.load %49 : !tt.ptr<i32> loc(#loc77)
    %51 = tt.addptr %arg21, %47 : !tt.ptr<i32>, i32 loc(#loc78)
    %52 = tt.load %51 : !tt.ptr<i32> loc(#loc79)
    %53 = arith.extsi %47 : i32 to i64 loc(#loc80)
    %54 = arith.extsi %48 : i32 to i64 loc(#loc81)
    %55 = arith.extsi %52 : i32 to i64 loc(#loc82)
    %56 = arith.extsi %43 : i32 to i64 loc(#loc83)
    %57 = arith.muli %54, %c256_i64 : i64 loc(#loc84)
    %58 = tt.make_range {end = 256 : i32, start = 0 : i32} : tensor<256xi32> loc(#loc85)
    %59 = arith.extsi %58 : tensor<256xi32> to tensor<256xi64> loc(#loc86)
    %60 = tt.splat %57 : i64 -> tensor<256xi64> loc(#loc86)
    %61 = arith.addi %60, %59 : tensor<256xi64> loc(#loc86)
    %62 = arith.extsi %50 : i32 to i64 loc(#loc87)
    %63 = tt.splat %62 : i64 -> tensor<256xi64> loc(#loc87)
    %64 = arith.remsi %61, %63 {tt.contiguity = dense<256> : tensor<1xi32>, tt.divisibility = dense<256> : tensor<1xi32>} : tensor<256xi64> loc(#loc87)
    %65 = tt.addptr %arg19, %55 : !tt.ptr<i32>, i64 loc(#loc88)
    %66 = tt.splat %65 : !tt.ptr<i32> -> tensor<256x!tt.ptr<i32>> loc(#loc89)
    %67 = tt.addptr %66, %64 : tensor<256x!tt.ptr<i32>>, tensor<256xi64> loc(#loc89)
    %68 = tt.load %67 : tensor<256x!tt.ptr<i32>> loc(#loc90)
    %69 = arith.divsi %68, %cst_7 : tensor<256xi32> loc(#loc91)
    %70 = tt.make_range {end = 128 : i32, start = 0 : i32} : tensor<128xi32> loc(#loc92)
    %71 = arith.extsi %70 : tensor<128xi32> to tensor<128xi64> loc(#loc93)
    %72 = arith.extsi %69 : tensor<256xi32> to tensor<256xi64> loc(#loc94)
    %73 = tt.expand_dims %72 {axis = 1 : i32} : tensor<256xi64> -> tensor<256x1xi64> loc(#loc95)
    %74 = arith.extsi %arg7 : i32 to i64 loc(#loc96)
    %75 = tt.splat %74 : i64 -> tensor<256x1xi64> loc(#loc96)
    %76 = arith.muli %73, %75 : tensor<256x1xi64> loc(#loc96)
    %77 = tt.splat %arg5 : !tt.ptr<f8E4M3FN> -> tensor<256x1x!tt.ptr<f8E4M3FN>> loc(#loc97)
    %78 = tt.addptr %77, %76 : tensor<256x1x!tt.ptr<f8E4M3FN>>, tensor<256x1xi64> loc(#loc97)
    %79 = tt.expand_dims %71 {axis = 0 : i32} : tensor<128xi64> -> tensor<1x128xi64> loc(#loc98)
    %80 = tt.broadcast %78 : tensor<256x1x!tt.ptr<f8E4M3FN>> -> tensor<256x128x!tt.ptr<f8E4M3FN>> loc(#loc99)
    %81 = tt.broadcast %79 : tensor<1x128xi64> -> tensor<256x128xi64> loc(#loc99)
    %82 = tt.addptr %80, %81 : tensor<256x128x!tt.ptr<f8E4M3FN>>, tensor<256x128xi64> loc(#loc99)
    %83 = arith.extsi %arg12 : i32 to i64 loc(#loc100)
    %84 = arith.muli %53, %83 : i64 loc(#loc100)
    %85 = tt.addptr %arg11, %84 : !tt.ptr<i8>, i64 loc(#loc101)
    %86 = arith.muli %56, %c8_i64 : i64 loc(#loc102)
    %87 = tt.make_range {end = 8 : i32, start = 0 : i32} : tensor<8xi32> loc(#loc103)
    %88 = arith.extsi %87 : tensor<8xi32> to tensor<8xi64> loc(#loc104)
    %89 = tt.splat %86 : i64 -> tensor<8xi64> loc(#loc104)
    %90 = arith.addi %89, %88 : tensor<8xi64> loc(#loc104)
    %91 = arith.extsi %arg17 : i32 to i64 loc(#loc105)
    %92 = tt.splat %91 : i64 -> tensor<8xi64> loc(#loc105)
    %93 = arith.remsi %90, %92 : tensor<8xi64> loc(#loc105)
    %94 = tt.splat %85 : !tt.ptr<i8> -> tensor<1x128x!tt.ptr<i8>> loc(#loc106)
    %95 = tt.addptr %94, %79 : tensor<1x128x!tt.ptr<i8>>, tensor<1x128xi64> loc(#loc106)
    %96 = tt.expand_dims %93 {axis = 1 : i32} : tensor<8xi64> -> tensor<8x1xi64> loc(#loc107)
    %97 = arith.extsi %arg13 : i32 to i64 loc(#loc108)
    %98 = tt.splat %97 : i64 -> tensor<8x1xi64> loc(#loc108)
    %99 = arith.muli %96, %98 : tensor<8x1xi64> loc(#loc108)
    %100 = tt.broadcast %95 : tensor<1x128x!tt.ptr<i8>> -> tensor<8x128x!tt.ptr<i8>> loc(#loc109)
    %101 = tt.broadcast %99 : tensor<8x1xi64> -> tensor<8x128xi64> loc(#loc109)
    %102 = tt.addptr %100, %101 : tensor<8x128x!tt.ptr<i8>>, tensor<8x128xi64> loc(#loc109)
    %103 = arith.muli %56, %c256_i64 : i64 loc(#loc110)
    %104 = tt.splat %103 : i64 -> tensor<256xi64> loc(#loc111)
    %105 = arith.addi %104, %59 : tensor<256xi64> loc(#loc111)
    %106 = tt.splat %91 : i64 -> tensor<256xi64> loc(#loc112)
    %107 = arith.remsi %105, %106 {tt.contiguity = dense<256> : tensor<1xi32>, tt.divisibility = dense<256> : tensor<1xi32>} : tensor<256xi64> loc(#loc112)
    %108 = tt.make_range {end = 64 : i32, start = 0 : i32} : tensor<64xi32> loc(#loc113)
    %109 = arith.extsi %108 : tensor<64xi32> to tensor<64xi64> loc(#loc114)
    %110 = arith.extsi %arg9 : i32 to i64 loc(#loc115)
    %111 = arith.muli %53, %110 : i64 loc(#loc115)
    %112 = tt.addptr %arg8, %111 : !tt.ptr<i8>, i64 loc(#loc116)
    %113 = tt.expand_dims %109 {axis = 1 : i32} : tensor<64xi64> -> tensor<64x1xi64> loc(#loc117)
    %114 = tt.expand_dims %107 {axis = 0 : i32} : tensor<256xi64> -> tensor<1x256xi64> loc(#loc118)
    %115 = arith.extsi %arg10 : i32 to i64 loc(#loc119)
    %116 = tt.splat %115 : i64 -> tensor<1x256xi64> loc(#loc119)
    %117 = arith.muli %114, %116 : tensor<1x256xi64> loc(#loc119)
    %118 = tt.broadcast %113 : tensor<64x1xi64> -> tensor<64x256xi64> loc(#loc120)
    %119 = tt.broadcast %117 : tensor<1x256xi64> -> tensor<64x256xi64> loc(#loc120)
    %120 = arith.addi %118, %119 : tensor<64x256xi64> loc(#loc120)
    %121 = tt.splat %112 : !tt.ptr<i8> -> tensor<64x256x!tt.ptr<i8>> loc(#loc121)
    %122 = tt.addptr %121, %120 : tensor<64x256x!tt.ptr<i8>>, tensor<64x256xi64> loc(#loc121)
    %123 = arith.extsi %arg18 : i32 to i64 loc(#loc122)
    %124:4 = scf.for %arg28 = %c0_i64 to %123 step %c128_i64 iter_args(%arg29 = %cst_1, %arg30 = %102, %arg31 = %82, %arg32 = %122) -> (tensor<256x256xf32>, tensor<8x128x!tt.ptr<i8>>, tensor<256x128x!tt.ptr<f8E4M3FN>>, tensor<64x256x!tt.ptr<i8>>)  : i64 {
      %174 = tt.load %arg31 : tensor<256x128x!tt.ptr<f8E4M3FN>> loc(#loc123)
      %175 = tt.load %arg32 : tensor<64x256x!tt.ptr<i8>> loc(#loc124)
      %176 = tt.load %arg30 : tensor<8x128x!tt.ptr<i8>> loc(#loc125)
      %177 = tt.reshape %176 : tensor<8x128xi8> -> tensor<256x4xi8> loc(#loc126)
      %178 = tt.dot_scaled %174 scale %cst_6, %175 scale %177, %arg29 lhs = e4m3 rhs = e2m1 {fastMath = true} : tensor<256x128xf8E4M3FN>, tensor<256x4xi8> * tensor<64x256xi8>, tensor<256x4xi8> -> tensor<256x256xf32> loc(#loc127)
      %179 = tt.addptr %arg30, %cst_5 : tensor<8x128x!tt.ptr<i8>>, tensor<8x128xi32> loc(#loc128)
      %180 = tt.addptr %arg31, %cst_4 : tensor<256x128x!tt.ptr<f8E4M3FN>>, tensor<256x128xi32> loc(#loc129)
      %181 = tt.addptr %arg32, %cst_3 : tensor<64x256x!tt.ptr<i8>>, tensor<64x256xi32> loc(#loc130)
      scf.yield %178, %179, %180, %181 : tensor<256x256xf32>, tensor<8x128x!tt.ptr<i8>>, tensor<256x128x!tt.ptr<f8E4M3FN>>, tensor<64x256x!tt.ptr<i8>> loc(#loc131)
    } loc(#loc122)
    %125 = arith.cmpi slt, %61, %63 : tensor<256xi64> loc(#loc132)
    %126 = arith.cmpi slt, %105, %106 : tensor<256xi64> loc(#loc133)
    %127 = arith.extsi %arg15 : i32 to i64 loc(#loc134)
    %128 = arith.muli %53, %127 : i64 loc(#loc134)
    %129 = tt.addptr %arg14, %128 : !tt.ptr<f32>, i64 loc(#loc135)
    %130 = tt.splat %129 : !tt.ptr<f32> -> tensor<256x!tt.ptr<f32>> loc(#loc136)
    %131 = tt.addptr %130, %105 : tensor<256x!tt.ptr<f32>>, tensor<256xi64> loc(#loc136)
    %132 = tt.load %131, %126, %cst_2 : tensor<256x!tt.ptr<f32>> loc(#loc137)
    %133 = tt.expand_dims %132 {axis = 0 : i32} : tensor<256xf32> -> tensor<1x256xf32> loc(#loc138)
    %134 = tt.broadcast %133 : tensor<1x256xf32> -> tensor<256x256xf32> loc(#loc139)
    %135 = arith.addf %124#0, %134 : tensor<256x256xf32> loc(#loc140)
    %136 = tt.reshape %135 : tensor<256x256xf32> -> tensor<256x128x2xf32> loc(#loc197)
    %outLHS, %outRHS = tt.split %136 : tensor<256x128x2xf32> -> tensor<256x128xf32> loc(#loc198)
    %137 = tt.splat %arg27 : f32 -> tensor<256x128xf32> loc(#loc208)
    %138 = arith.minnumf %outLHS, %137 : tensor<256x128xf32> loc(#loc208)
    %139 = arith.minnumf %outRHS, %137 : tensor<256x128xf32> loc(#loc209)
    %140 = arith.subf %cst, %arg27 : f32 loc(#loc210)
    %141 = tt.splat %140 : f32 -> tensor<256x128xf32> loc(#loc211)
    %142 = arith.maxnumf %141, %139 : tensor<256x128xf32> loc(#loc211)
    %143 = arith.subf %cst, %arg26 : f32 loc(#loc202)
    %144 = tt.splat %143 : f32 -> tensor<256x128xf32> loc(#loc203)
    %145 = arith.mulf %144, %138 : tensor<256x128xf32> loc(#loc203)
    %146 = math.exp %145 : tensor<256x128xf32> loc(#loc204)
    %147 = arith.addf %146, %cst_0 : tensor<256x128xf32> loc(#loc205)
    %148 = arith.divf %138, %147 : tensor<256x128xf32> loc(#loc206)
    %149 = math.fma %148, %142, %148 : tensor<256x128xf32> loc(#loc207)
    %150 = arith.muli %56, %c128_i64 : i64 loc(#loc156)
    %151 = tt.splat %150 : i64 -> tensor<128xi64> loc(#loc157)
    %152 = arith.addi %151, %71 : tensor<128xi64> loc(#loc157)
    %153 = arith.extsi %12 : i32 to i64 loc(#loc158)
    %154 = tt.splat %153 : i64 -> tensor<128xi64> loc(#loc158)
    %155 = arith.cmpi slt, %152, %154 : tensor<128xi64> loc(#loc158)
    %156 = arith.extsi %arg4 : i32 to i64 loc(#loc159)
    %157 = arith.muli %55, %156 : i64 loc(#loc159)
    %158 = tt.addptr %arg1, %157 : !tt.ptr<f8E4M3FN>, i64 loc(#loc160)
    %159 = tt.expand_dims %61 {axis = 1 : i32} : tensor<256xi64> -> tensor<256x1xi64> loc(#loc161)
    %160 = tt.splat %156 : i64 -> tensor<256x1xi64> loc(#loc162)
    %161 = arith.muli %159, %160 : tensor<256x1xi64> loc(#loc162)
    %162 = tt.splat %158 : !tt.ptr<f8E4M3FN> -> tensor<256x1x!tt.ptr<f8E4M3FN>> loc(#loc163)
    %163 = tt.addptr %162, %161 : tensor<256x1x!tt.ptr<f8E4M3FN>>, tensor<256x1xi64> loc(#loc163)
    %164 = tt.expand_dims %152 {axis = 0 : i32} : tensor<128xi64> -> tensor<1x128xi64> loc(#loc164)
    %165 = tt.broadcast %163 : tensor<256x1x!tt.ptr<f8E4M3FN>> -> tensor<256x128x!tt.ptr<f8E4M3FN>> loc(#loc165)
    %166 = tt.broadcast %164 : tensor<1x128xi64> -> tensor<256x128xi64> loc(#loc165)
    %167 = tt.addptr %165, %166 : tensor<256x128x!tt.ptr<f8E4M3FN>>, tensor<256x128xi64> loc(#loc165)
    %168 = tt.expand_dims %125 {axis = 1 : i32} : tensor<256xi1> -> tensor<256x1xi1> loc(#loc166)
    %169 = tt.expand_dims %155 {axis = 0 : i32} : tensor<128xi1> -> tensor<1x128xi1> loc(#loc167)
    %170 = tt.broadcast %168 : tensor<256x1xi1> -> tensor<256x128xi1> loc(#loc168)
    %171 = tt.broadcast %169 : tensor<1x128xi1> -> tensor<256x128xi1> loc(#loc168)
    %172 = arith.andi %170, %171 : tensor<256x128xi1> loc(#loc168)
    %173 = tt.fp_to_fp %149, rounding = rtne : tensor<256x128xf32> -> tensor<256x128xf8E4M3FN> loc(#loc169)
    tt.store %167, %173, %172 : tensor<256x128x!tt.ptr<f8E4M3FN>> loc(#loc169)
    tt.return loc(#loc170)
  } loc(#loc)
} loc(#loc)
#loc1 = loc(unknown)
#loc2 = loc("/root/code/triton/python/triton_kernels/triton_kernels/specialize.py":21:28)
#loc3 = loc("/root/code/triton/python/triton_kernels/triton_kernels/specialize.py":21:14)
#loc4 = loc("/root/code/triton/python/triton_kernels/triton_kernels/specialize.py":22:28)
#loc5 = loc("/root/code/triton/python/triton_kernels/triton_kernels/specialize.py":22:14)
#loc6 = loc("/root/code/triton/python/triton_kernels/triton_kernels/specialize.py":23:28)
#loc7 = loc("/root/code/triton/python/triton_kernels/triton_kernels/specialize.py":23:14)
#loc8 = loc("/root/code/triton/python/triton_kernels/triton_kernels/specialize.py":24:14)
#loc9 = loc("/root/code/triton/python/triton_kernels/triton_kernels/specialize.py":25:28)
#loc10 = loc("/root/code/triton/python/triton_kernels/triton_kernels/specialize.py":25:14)
#loc11 = loc("/root/code/triton/python/triton_kernels/triton_kernels/specialize.py":26:28)
#loc12 = loc("/root/code/triton/python/triton_kernels/triton_kernels/specialize.py":26:14)
#loc13 = loc("/root/code/triton/python/triton_kernels/triton_kernels/specialize.py":27:14)
#loc14 = loc("/root/code/triton/python/triton_kernels/triton_kernels/specialize.py":28:28)
#loc15 = loc("/root/code/triton/python/triton_kernels/triton_kernels/specialize.py":28:14)
#loc16 = loc("/root/code/triton/python/triton_kernels/triton_kernels/specialize.py":29:14)
#loc17 = loc("/root/code/triton/python/triton_kernels/triton_kernels/specialize.py":30:28)
#loc18 = loc("/root/code/triton/python/triton_kernels/triton_kernels/specialize.py":30:14)
#loc19 = loc("/root/code/triton/python/triton_kernels/triton_kernels/specialize.py":31:29)
#loc20 = loc("/root/code/triton/python/triton_kernels/triton_kernels/specialize.py":31:14)
#loc21 = loc("/root/code/triton/python/triton_kernels/triton_kernels/specialize.py":32:14)
#loc22 = loc("/root/code/triton/python/triton_kernels/triton_kernels/specialize.py":33:29)
#loc23 = loc("/root/code/triton/python/triton_kernels/triton_kernels/specialize.py":33:14)
#loc24 = loc("/root/code/triton/python/triton_kernels/triton_kernels/specialize.py":34:28)
#loc25 = loc("/root/code/triton/python/triton_kernels/triton_kernels/specialize.py":34:14)
#loc26 = loc("/root/code/triton/python/triton_kernels/triton_kernels/specialize.py":35:14)
#loc27 = loc("/root/code/triton/python/triton_kernels/triton_kernels/specialize.py":36:24)
#loc28 = loc("/root/code/triton/python/triton_kernels/triton_kernels/specialize.py":36:14)
#loc29 = loc("/root/code/triton/python/triton_kernels/triton_kernels/specialize.py":37:24)
#loc30 = loc("/root/code/triton/python/triton_kernels/triton_kernels/specialize.py":37:14)
#loc31 = loc("/root/code/triton/python/triton_kernels/triton_kernels/specialize.py":55:14)
#loc32 = loc("/root/code/triton/python/triton_kernels/triton_kernels/specialize.py":57:24)
#loc33 = loc("/root/code/triton/python/triton_kernels/triton_kernels/specialize.py":61:37)
#loc34 = loc("/root/code/triton/python/triton_kernels/triton_kernels/specialize.py":61:29)
#loc35 = loc("/root/code/triton/python/triton_kernels/triton_kernels/specialize.py":68:26)
#loc36 = loc("/root/code/triton/python/triton_kernels/triton_kernels/specialize.py":69:28)
#loc37 = loc("/root/code/triton/python/triton_kernels/triton_kernels/specialize.py":69:14)
#loc38 = loc("/root/code/triton/python/triton_kernels/triton_kernels/specialize.py":71:51)
#loc39 = loc("/root/code/triton/python/triton_kernels/triton_kernels/specialize.py":72:19)
#loc40 = loc("/root/code/triton/python/triton_kernels/triton_kernels/specialize.py":72:32)
#loc41 = loc("/root/code/triton/python/triton_kernels/triton_kernels/specialize.py":72:25)
#loc42 = loc("/root/code/triton/python/triton_kernels/triton_kernels/specialize.py":74:23)
#loc43 = loc("/root/code/triton/python/triton_kernels/triton_kernels/specialize.py":75:32)
#loc44 = loc("/root/code/triton/python/triton_kernels/triton_kernels/specialize.py":75:20)
#loc45 = loc("/root/code/triton/python/triton_kernels/triton_kernels/specialize.py":75:11)
#loc46 = loc("/root/code/triton/python/triton_kernels/triton_kernels/matmul_ogs_details/_common.py":36:22)
#loc47 = loc("/root/code/triton/python/triton_kernels/triton_kernels/specialize.py":76:64)
#loc48 = loc("/root/code/triton/python/triton_kernels/triton_kernels/matmul_ogs_details/_common.py":37:22)
#loc49 = loc("/root/code/triton/python/triton_kernels/triton_kernels/matmul_ogs_details/_common.py":38:41)
#loc50 = loc("/root/code/triton/python/triton_kernels/triton_kernels/matmul_ogs_details/_common.py":38:30)
#loc51 = loc("/root/code/triton/python/triton_kernels/triton_kernels/matmul_ogs_details/_common.py":38:50)
#loc52 = loc("/root/code/triton/python/triton_kernels/triton_kernels/matmul_ogs_details/_common.py":39:28)
#loc53 = loc("/root/code/triton/python/triton_kernels/triton_kernels/matmul_ogs_details/_common.py":39:14)
#loc54 = loc("/root/code/triton/python/triton_kernels/triton_kernels/specialize.py":81:8)
#loc55 = loc("/root/code/triton/python/triton_kernels/triton_kernels/matmul_ogs_details/_common.py":22:36)
#loc56 = loc("/root/code/triton/python/triton_kernels/triton_kernels/specialize.py":86:61)
#loc57 = loc("/root/code/triton/python/triton_kernels/triton_kernels/matmul_ogs_details/_common.py":23:37)
#loc58 = loc("/root/code/triton/python/triton_kernels/triton_kernels/matmul_ogs_details/_common.py":26:18)
#loc59 = loc("/root/code/triton/python/triton_kernels/triton_kernels/matmul_ogs_details/_common.py":27:23)
#loc60 = loc("/root/code/triton/python/triton_kernels/triton_kernels/matmul_ogs_details/_common.py":30:22)
#loc61 = loc("/root/code/triton/python/triton_kernels/triton_kernels/matmul_ogs_details/_common.py":30:50)
#loc62 = loc("/root/code/triton/python/triton_kernels/triton_kernels/matmul_ogs_details/_common.py":30:39)
#loc63 = loc("/root/code/triton/python/triton_kernels/triton_kernels/matmul_ogs_details/_common.py":30:70)
#loc64 = loc("/root/code/triton/python/triton_kernels/triton_kernels/specialize.py":88:26)
#loc65 = loc("/root/code/triton/python/triton_kernels/triton_kernels/specialize.py":91:57)
#loc66 = loc("/root/code/triton/python/triton_kernels/triton_kernels/matmul_ogs_details/_common.py":40:40)
#loc67 = loc("/root/code/triton/python/triton_kernels/triton_kernels/matmul_ogs_details/_common.py":40:34)
#loc68 = loc("/root/code/triton/python/triton_kernels/triton_kernels/matmul_ogs_details/_common.py":41:19)
#loc69 = loc("/root/code/triton/python/triton_kernels/triton_kernels/matmul_ogs_details/_common.py":41:30)
#loc70 = loc("/root/code/triton/python/triton_kernels/triton_kernels/specialize.py":104:39)
#loc71 = loc("/root/code/triton/python/triton_kernels/triton_kernels/specialize.py":104:28)
#loc72 = loc("/root/code/triton/python/triton_kernels/triton_kernels/specialize.py":105:24)
#loc73 = loc("/root/code/triton/python/triton_kernels/triton_kernels/specialize.py":106:12)
#loc74 = loc("/root/code/triton/python/triton_kernels/triton_kernels/specialize.py":107:30)
#loc75 = loc("/root/code/triton/python/triton_kernels/triton_kernels/specialize.py":108:32)
#loc76 = loc("/root/code/triton/python/triton_kernels/triton_kernels/specialize.py":109:31)
#loc77 = loc("/root/code/triton/python/triton_kernels/triton_kernels/specialize.py":109:20)
#loc78 = loc("/root/code/triton/python/triton_kernels/triton_kernels/specialize.py":110:37)
#loc79 = loc("/root/code/triton/python/triton_kernels/triton_kernels/specialize.py":110:26)
#loc80 = loc("/root/code/triton/python/triton_kernels/triton_kernels/specialize.py":112:35)
#loc81 = loc("/root/code/triton/python/triton_kernels/triton_kernels/specialize.py":112:60)
#loc82 = loc("/root/code/triton/python/triton_kernels/triton_kernels/specialize.py":113:34)
#loc83 = loc("/root/code/triton/python/triton_kernels/triton_kernels/specialize.py":114:28)
#loc84 = loc("/root/code/triton/python/triton_kernels/triton_kernels/specialize.py":116:25)
#loc85 = loc("/root/code/triton/python/triton_kernels/triton_kernels/specialize.py":116:49)
#loc86 = loc("/root/code/triton/python/triton_kernels/triton_kernels/specialize.py":116:36)
#loc87 = loc("/root/code/triton/python/triton_kernels/triton_kernels/specialize.py":117:59)
#loc88 = loc("/root/code/triton/python/triton_kernels/triton_kernels/specialize.py":122:22)
#loc89 = loc("/root/code/triton/python/triton_kernels/triton_kernels/specialize.py":124:40)
#loc90 = loc("/root/code/triton/python/triton_kernels/triton_kernels/specialize.py":124:27)
#loc91 = loc("/root/code/triton/python/triton_kernels/triton_kernels/specialize.py":124:53)
#loc92 = loc("/root/code/triton/python/triton_kernels/triton_kernels/specialize.py":125:44)
#loc93 = loc("/root/code/triton/python/triton_kernels/triton_kernels/specialize.py":125:31)
#loc94 = loc("/root/code/triton/python/triton_kernels/triton_kernels/specialize.py":126:28)
#loc95 = loc("/root/code/triton/python/triton_kernels/triton_kernels/specialize.py":126:40)
#loc96 = loc("/root/code/triton/python/triton_kernels/triton_kernels/specialize.py":126:51)
#loc97 = loc("/root/code/triton/python/triton_kernels/triton_kernels/specialize.py":126:16)
#loc98 = loc("/root/code/triton/python/triton_kernels/triton_kernels/specialize.py":126:86)
#loc99 = loc("/root/code/triton/python/triton_kernels/triton_kernels/specialize.py":126:64)
#loc100 = loc("/root/code/triton/python/triton_kernels/triton_kernels/specialize.py":149:29)
#loc101 = loc("/root/code/triton/python/triton_kernels/triton_kernels/specialize.py":149:19)
#loc102 = loc("/root/code/triton/python/triton_kernels/triton_kernels/specialize.py":173:37)
#loc103 = loc("/root/code/triton/python/triton_kernels/triton_kernels/specialize.py":173:68)
#loc104 = loc("/root/code/triton/python/triton_kernels/triton_kernels/specialize.py":173:54)
#loc105 = loc("/root/code/triton/python/triton_kernels/triton_kernels/specialize.py":173:87)
#loc106 = loc("/root/code/triton/python/triton_kernels/triton_kernels/specialize.py":176:32)
#loc107 = loc("/root/code/triton/python/triton_kernels/triton_kernels/specialize.py":176:116)
#loc108 = loc("/root/code/triton/python/triton_kernels/triton_kernels/specialize.py":176:127)
#loc109 = loc("/root/code/triton/python/triton_kernels/triton_kernels/specialize.py":176:88)
#loc110 = loc("/root/code/triton/python/triton_kernels/triton_kernels/specialize.py":187:23)
#loc111 = loc("/root/code/triton/python/triton_kernels/triton_kernels/specialize.py":187:42)
#loc112 = loc("/root/code/triton/python/triton_kernels/triton_kernels/specialize.py":188:60)
#loc113 = loc("/root/code/triton/python/triton_kernels/triton_kernels/specialize.py":190:55)
#loc114 = loc("/root/code/triton/python/triton_kernels/triton_kernels/specialize.py":190:42)
#loc115 = loc("/root/code/triton/python/triton_kernels/triton_kernels/specialize.py":191:19)
#loc116 = loc("/root/code/triton/python/triton_kernels/triton_kernels/specialize.py":191:9)
#loc117 = loc("/root/code/triton/python/triton_kernels/triton_kernels/specialize.py":192:41)
#loc118 = loc("/root/code/triton/python/triton_kernels/triton_kernels/specialize.py":192:89)
#loc119 = loc("/root/code/triton/python/triton_kernels/triton_kernels/specialize.py":192:100)
#loc120 = loc("/root/code/triton/python/triton_kernels/triton_kernels/specialize.py":192:65)
#loc121 = loc("/root/code/triton/python/triton_kernels/triton_kernels/specialize.py":192:17)
#loc122 = loc("/root/code/triton/python/triton_kernels/triton_kernels/specialize.py":195:39)
#loc123 = loc("/root/code/triton/python/triton_kernels/triton_kernels/specialize.py":207:20)
#loc124 = loc("/root/code/triton/python/triton_kernels/triton_kernels/specialize.py":208:20)
#loc125 = loc("/root/code/triton/python/triton_kernels/triton_kernels/specialize.py":225:46)
#loc126 = loc("/root/code/triton/python/triton_kernels/triton_kernels/specialize.py":225:60)
#loc127 = loc("/root/code/triton/python/triton_kernels/triton_kernels/specialize.py":235:68)
#loc128 = loc("/root/code/triton/python/triton_kernels/triton_kernels/specialize.py":239:31)
#loc129 = loc("/root/code/triton/python/triton_kernels/triton_kernels/specialize.py":242:17)
#loc130 = loc("/root/code/triton/python/triton_kernels/triton_kernels/specialize.py":243:17)
#loc131 = loc("/root/code/triton/python/triton_kernels/triton_kernels/specialize.py":243:8)
#loc132 = loc("/root/code/triton/python/triton_kernels/triton_kernels/specialize.py":247:22)
#loc133 = loc("/root/code/triton/python/triton_kernels/triton_kernels/specialize.py":248:24)
#loc134 = loc("/root/code/triton/python/triton_kernels/triton_kernels/specialize.py":250:30)
#loc135 = loc("/root/code/triton/python/triton_kernels/triton_kernels/specialize.py":250:20)
#loc136 = loc("/root/code/triton/python/triton_kernels/triton_kernels/specialize.py":250:43)
#loc137 = loc("/root/code/triton/python/triton_kernels/triton_kernels/specialize.py":252:27)
#loc138 = loc("/root/code/triton/python/triton_kernels/triton_kernels/specialize.py":272:21)
#loc139 = loc("/root/code/triton/python/triton_kernels/triton_kernels/specialize.py":272:32)
#loc140 = loc("/root/code/triton/python/triton_kernels/triton_kernels/specialize.py":272:16)
#loc141 = loc("/root/code/triton/python/triton_kernels/triton_kernels/swiglu_details/_swiglu.py":51:46)
#loc142 = loc("/root/code/triton/python/triton_kernels/triton_kernels/specialize.py":277:33)
#loc143 = loc("/root/code/triton/python/triton_kernels/triton_kernels/swiglu_details/_swiglu.py":51:28)
#loc144 = loc("/root/code/triton/python/triton_kernels/triton_kernels/swiglu_details/_swiglu.py":8:24)
#loc145 = loc("/root/code/triton/python/triton_kernels/triton_kernels/swiglu_details/_swiglu.py":41:26)
#loc146 = loc("/root/code/triton/python/triton_kernels/triton_kernels/swiglu_details/_swiglu.py":52:52)
#loc147 = loc("/root/code/triton/python/triton_kernels/triton_kernels/swiglu_details/_swiglu.py":44:30)
#loc148 = loc("/root/code/triton/python/triton_kernels/triton_kernels/swiglu_details/_swiglu.py":10:26)
#loc149 = loc("/root/code/triton/python/triton_kernels/triton_kernels/swiglu_details/_swiglu.py":10:33)
#loc150 = loc("/root/code/triton/python/triton_kernels/triton_kernels/swiglu_details/_swiglu.py":45:28)
#loc151 = loc("/root/code/triton/python/triton_kernels/triton_kernels/swiglu_details/_swiglu.py":45:36)
#loc152 = loc("/root/code/triton/python/triton_kernels/triton_kernels/swiglu_details/_swiglu.py":45:27)
#loc153 = loc("/root/code/triton/python/triton_kernels/triton_kernels/swiglu_details/_swiglu.py":45:20)
#loc154 = loc("/root/code/triton/python/triton_kernels/triton_kernels/swiglu_details/_swiglu.py":45:16)
#loc155 = loc("/root/code/triton/python/triton_kernels/triton_kernels/swiglu_details/_swiglu.py":46:29)
#loc156 = loc("/root/code/triton/python/triton_kernels/triton_kernels/specialize.py":279:33)
#loc157 = loc("/root/code/triton/python/triton_kernels/triton_kernels/specialize.py":279:41)
#loc158 = loc("/root/code/triton/python/triton_kernels/triton_kernels/specialize.py":280:28)
#loc159 = loc("/root/code/triton/python/triton_kernels/triton_kernels/specialize.py":292:23)
#loc160 = loc("/root/code/triton/python/triton_kernels/triton_kernels/specialize.py":292:13)
#loc161 = loc("/root/code/triton/python/triton_kernels/triton_kernels/specialize.py":295:40)
#loc162 = loc("/root/code/triton/python/triton_kernels/triton_kernels/specialize.py":295:51)
#loc163 = loc("/root/code/triton/python/triton_kernels/triton_kernels/specialize.py":295:16)
#loc164 = loc("/root/code/triton/python/triton_kernels/triton_kernels/specialize.py":295:88)
#loc165 = loc("/root/code/triton/python/triton_kernels/triton_kernels/specialize.py":295:64)
#loc166 = loc("/root/code/triton/python/triton_kernels/triton_kernels/specialize.py":296:18)
#loc167 = loc("/root/code/triton/python/triton_kernels/triton_kernels/specialize.py":296:36)
#loc168 = loc("/root/code/triton/python/triton_kernels/triton_kernels/specialize.py":296:29)
#loc169 = loc("/root/code/triton/python/triton_kernels/triton_kernels/specialize.py":300:20)
#loc170 = loc("/root/code/triton/python/triton_kernels/triton_kernels/specialize.py":300:4)
#loc171 = loc(callsite(#loc46 at #loc47))
#loc172 = loc(callsite(#loc48 at #loc47))
#loc173 = loc(callsite(#loc49 at #loc47))
#loc174 = loc(callsite(#loc50 at #loc47))
#loc175 = loc(callsite(#loc51 at #loc47))
#loc176 = loc(callsite(#loc52 at #loc47))
#loc177 = loc(callsite(#loc53 at #loc47))
#loc178 = loc(callsite(#loc55 at #loc56))
#loc179 = loc(callsite(#loc57 at #loc56))
#loc180 = loc(callsite(#loc58 at #loc56))
#loc181 = loc(callsite(#loc59 at #loc56))
#loc182 = loc(callsite(#loc60 at #loc56))
#loc183 = loc(callsite(#loc61 at #loc56))
#loc184 = loc(callsite(#loc62 at #loc56))
#loc185 = loc(callsite(#loc63 at #loc56))
#loc186 = loc(callsite(#loc46 at #loc65))
#loc187 = loc(callsite(#loc48 at #loc65))
#loc188 = loc(callsite(#loc49 at #loc65))
#loc189 = loc(callsite(#loc50 at #loc65))
#loc190 = loc(callsite(#loc51 at #loc65))
#loc191 = loc(callsite(#loc52 at #loc65))
#loc192 = loc(callsite(#loc53 at #loc65))
#loc193 = loc(callsite(#loc66 at #loc65))
#loc194 = loc(callsite(#loc67 at #loc65))
#loc195 = loc(callsite(#loc68 at #loc65))
#loc196 = loc(callsite(#loc69 at #loc65))
#loc197 = loc(callsite(#loc141 at #loc142))
#loc198 = loc(callsite(#loc143 at #loc142))
#loc199 = loc(callsite(#loc146 at #loc142))
#loc200 = loc(callsite(#loc145 at #loc199))
#loc201 = loc(callsite(#loc147 at #loc199))
#loc202 = loc(callsite(#loc150 at #loc199))
#loc203 = loc(callsite(#loc151 at #loc199))
#loc204 = loc(callsite(#loc152 at #loc199))
#loc205 = loc(callsite(#loc153 at #loc199))
#loc206 = loc(callsite(#loc154 at #loc199))
#loc207 = loc(callsite(#loc155 at #loc199))
#loc208 = loc(callsite(#loc144 at #loc200))
#loc209 = loc(callsite(#loc144 at #loc201))
#loc210 = loc(callsite(#loc148 at #loc201))
#loc211 = loc(callsite(#loc149 at #loc201))
